…
    "papermill": {
     "duration": 0.105287,
     "end_time": "2024-09-01T10:55:24.523599",
     "exception": false,
     "start_time": "2024-09-01T10:55:24.418312",
     "status": "completed"
    },
    "tags": []
   },
   "outputs": [
    {
     "name": "stdout",
     "output_type": "stream",
     "text": [
      "Model: \"sequential\"\n",
      "_________________________________________________________________\n",
      " Layer (type)                Output Shape              Param #   \n",
      "=================================================================\n",
      " conv2d (Conv2D)             (None, 148, 148, 32)      896       \n",
      "                                                                 \n",
      " conv2d_1 (Conv2D)           (None, 146, 146, 64)      18496     \n",
      "                                                                 \n",
      " max_pooling2d (MaxPooling2D  (None, 73, 73, 64)       0         \n",
      " )                                                               \n",
      "                                                                 \n",
      " dropout (Dropout)           (None, 73, 73, 64)        0         \n",
      "                                                                 \n",
      " conv2d_2 (Conv2D)           (None, 71, 71, 64)        36928     \n",
      "                                                                 \n",
      " conv2d_3 (Conv2D)           (None, 69, 69, 64)        36928     \n",
      "                                                                 \n",
      " dropout_1 (Dropout)         (None, 69, 69, 64)        0         \n",
      "                                                                 \n",
      " max_pooling2d_1 (MaxPooling  (None, 34, 34, 64)       0         \n",
      " 2D)                                                             \n",
      "                                                                 \n",
      " dropout_2 (Dropout)         (None, 34, 34, 64)        0         \n",
      "                                                                 \n",
      " conv2d_4 (Conv2D)           (None, 32, 32, 128)       73856     \n",
      "                                                                 \n",
      " conv2d_5 (Conv2D)           (None, 30, 30, 128)       147584    \n",
      "                                                                 \n",
      " conv2d_6 (Conv2D)           (None, 28, 28, 128)       147584    \n",
      "                                                                 \n",
      " max_pooling2d_2 (MaxPooling  (None, 14, 14, 128)      0         \n",
      " 2D)                                                             \n",
      "                                                                 \n",
      " dropout_3 (Dropout)         (None, 14, 14, 128)       0         \n",
      "                                                                 \n",
      " conv2d_7 (Conv2D)           (None, 12, 12, 128)       147584    \n",
      "                                                                 \n",
      " conv2d_8 (Conv2D)           (None, 10, 10, 256)       295168    \n",
      "                                                                 \n",
      " max_pooling2d_3 (MaxPooling  (None, 5, 5, 256)        0         \n",
      " 2D)                                                             \n",
      "                                                                 \n",
      " dropout_4 (Dropout)         (None, 5, 5, 256)         0         \n",
      "                                                                 \n",
      " flatten (Flatten)           (None, 6400)              0         \n",
      "                                                                 \n",
      " dense (Dense)               (None, 512)               3277312   \n",
      "                                                                 \n",
      " dense_1 (Dense)             (None, 512)               262656    \n",
      "                                                                 \n",
      " dropout_5 (Dropout)         (None, 512)               0         \n",
      "                                                                 \n",
      " dense_2 (Dense)             (None, 4)                 2052      \n",
      "                                                                 \n",
      "=================================================================\n",
      "Total params: 4,447,044\n",
      "Trainable params: 4,447,044\n",
      "Non-trainable params: 0\n",
      "_________________________________________________________________\n"
     ]
    }
   ],
   "source": [
    "model.summary()"
…
